…
2021-03-04 15:18:09.496159: I tensorflow/compiler/jit/xla_gpu_device.cc:99] Not creating XLA devices, tf_xla_enable_xla_devices not set
2021-03-04 15:18:09.496185: I tensorflow/core/common_runtime/gpu/gpu_device.cc:1261] Device interconnect StreamExecutor with strength 1 edge matrix:
2021-03-04 15:18:09.496194: I tensorflow/core/common_runtime/gpu/gpu_device.cc:1267]      
Model: "RELU_64_batches"
_________________________________________________________________
Layer (type)                 Output Shape              Param #   
=================================================================
flatten (Flatten)            (None, 1024)              0         
_________________________________________________________________
dense (Dense)                (None, 300)               307500    
_________________________________________________________________
Relu1 (Activation)           (None, 300)               0         
_________________________________________________________________
dense_1 (Dense)              (None, 150)               45150     
_________________________________________________________________
Relu2 (Activation)           (None, 150)               0         
_________________________________________________________________
dense_2 (Dense)              (None, 4)                 604       
_________________________________________________________________
activation (Activation)      (None, 4)                 0         
=================================================================
Total params: 353,254
Trainable params: 353,254
Non-trainable params: 0
_________________________________________________________________
2021-03-04 15:18:09.711627: I tensorflow/compiler/mlir/mlir_graph_optimization_pass.cc:116] None of the MLIR optimization passes are enabled (registered 2)
2021-03-04 15:18:09.733752: I tensorflow/core/platform/profile_utils/cpu_utils.cc:112] CPU Frequency: 2100000000 Hz
…
203/203 - 1s - loss: 0.2222 - accuracy: 0.9297 - val_loss: 0.2879 - val_accuracy: 0.9080
Epoch 50/50
203/203 - 1s - loss: 0.2166 - accuracy: 0.9357 - val_loss: 0.2777 - val_accuracy: 0.9103
6/6 - 0s - loss: 0.9357 - accuracy: 0.6229


Loss and metrics for TANH model with batch normalization, 32 batches and 50 epochs: 
Test Loss is 0.94 
Test Accuracy is 62.29 %

Model: "sequential"
_________________________________________________________________
Layer (type)                 Output Shape              Param #   
=================================================================
permute (Permute)            (None, 32, 32, 1)         0         
_________________________________________________________________
Conv2D_1 (Conv2D)            (None, 32, 32, 64)        640       
_________________________________________________________________
dropout (Dropout)            (None, 32, 32, 64)        0         
_________________________________________________________________
batch_normalization_2 (Batch (None, 32, 32, 64)        128       
_________________________________________________________________
max_pooling2d (MaxPooling2D) (None, 16, 16, 64)        0         
_________________________________________________________________
Conv2D_2 (Conv2D)            (None, 16, 16, 128)       73856     
_________________________________________________________________
dropout_1 (Dropout)          (None, 16, 16, 128)       0         
_________________________________________________________________
batch_normalization_3 (Batch (None, 16, 16, 128)       64        
_________________________________________________________________
Conv2D_3 (Conv2D)            (None, 16, 16, 128)       147584    
_________________________________________________________________
dropout_2 (Dropout)          (None, 16, 16, 128)       0         
_________________________________________________________________
batch_normalization_4 (Batch (None, 16, 16, 128)       64        
_________________________________________________________________
max_pooling2d_1 (MaxPooling2 (None, 8, 8, 128)         0         
_________________________________________________________________
Conv2D_4 (Conv2D)            (None, 8, 8, 256)         295168    
_________________________________________________________________
dropout_3 (Dropout)          (None, 8, 8, 256)         0         
_________________________________________________________________
batch_normalization_5 (Batch (None, 8, 8, 256)         32        
_________________________________________________________________
Conv2D_5 (Conv2D)            (None, 8, 8, 256)         590080    
_________________________________________________________________
dropout_4 (Dropout)          (None, 8, 8, 256)         0         
_________________________________________________________________
batch_normalization_6 (Batch (None, 8, 8, 256)         32        
_________________________________________________________________
max_pooling2d_2 (MaxPooling2 (None, 4, 4, 256)         0         
_________________________________________________________________
flatten_1 (Flatten)          (None, 4096)              0         
_________________________________________________________________
FCN_1 (Dense)                (None, 512)               2097664   
_________________________________________________________________
dropout_5 (Dropout)          (None, 512)               0         
_________________________________________________________________
FCN_2 (Dense)                (None, 128)               65664     
_________________________________________________________________
FCN_3 (Dense)                (None, 4)                 516       
=================================================================
Total params: 3,271,492
Trainable params: 3,271,332
Non-trainable params: 160
_________________________________________________________________
Epoch 1/25
102/102 [==============================] - 17s 161ms/step - loss: 8.1857 - acc: 0.3802 - val_loss: 7.9092 - val_acc: 0.2500
Epoch 2/25
102/102 [==============================] - 16s 157ms/step - loss: 7.5819 - acc: 0.5379 - val_loss: 8.0729 - val_acc: 0.2500
…
102/102 [==============================] - 16s 158ms/step - loss: 6.4654 - acc: 0.8089 - val_loss: 7.4316 - val_acc: 0.4630
Epoch 25/25
102/102 [==============================] - 16s 158ms/step - loss: 6.4507 - acc: 0.8028 - val_loss: 7.4020 - val_acc: 0.4693
6/6 [==============================] - 0s 17ms/step - loss: 7.8548 - acc: 0.3200
test loss, test acc: [7.854780197143555, 0.3199999928474426]
Model: "sequential_1"
_________________________________________________________________
Layer (type)                 Output Shape              Param #   
=================================================================
permute_1 (Permute)          (None, 32, 32, 1)         0         
_________________________________________________________________
Conv2D_1 (Conv2D)            (None, 32, 32, 32)        320       
_________________________________________________________________
dropout_6 (Dropout)          (None, 32, 32, 32)        0         
_________________________________________________________________
batch_normalization_7 (Batch (None, 32, 32, 32)        128       
_________________________________________________________________
max_pooling2d_3 (MaxPooling2 (None, 16, 16, 32)        0         
_________________________________________________________________
Conv2D_2 (Conv2D)            (None, 16, 16, 64)        18496     
_________________________________________________________________
dropout_7 (Dropout)          (None, 16, 16, 64)        0         
_________________________________________________________________
batch_normalization_8 (Batch (None, 16, 16, 64)        64        
_________________________________________________________________
Conv2D_3 (Conv2D)            (None, 16, 16, 64)        36928     
_________________________________________________________________
dropout_8 (Dropout)          (None, 16, 16, 64)        0         
_________________________________________________________________
batch_normalization_9 (Batch (None, 16, 16, 64)        64        
_________________________________________________________________
max_pooling2d_4 (MaxPooling2 (None, 8, 8, 64)          0         
_________________________________________________________________
Conv2D_4 (Conv2D)            (None, 8, 8, 128)         73856     
_________________________________________________________________
dropout_9 (Dropout)          (None, 8, 8, 128)         0         
_________________________________________________________________
batch_normalization_10 (Batc (None, 8, 8, 128)         32        
_________________________________________________________________
Conv2D_5 (Conv2D)            (None, 8, 8, 128)         147584    
_________________________________________________________________
dropout_10 (Dropout)         (None, 8, 8, 128)         0         
_________________________________________________________________
batch_normalization_11 (Batc (None, 8, 8, 128)         32        
_________________________________________________________________
max_pooling2d_5 (MaxPooling2 (None, 4, 4, 128)         0         
_________________________________________________________________
flatten_2 (Flatten)          (None, 2048)              0         
_________________________________________________________________
FCN_1 (Dense)                (None, 512)               1049088   
_________________________________________________________________
dropout_11 (Dropout)         (None, 512)               0         
_________________________________________________________________
FCN_2 (Dense)                (None, 128)               65664     
_________________________________________________________________
FCN_3 (Dense)                (None, 4)                 516       
=================================================================
Total params: 1,392,772
Trainable params: 1,392,612
Non-trainable params: 160
_________________________________________________________________
Epoch 1/25
102/102 [==============================] - 9s 77ms/step - loss: 5.2499 - acc: 0.3307 - val_loss: 4.7211 - val_acc: 0.2500
Epoch 2/25
102/102 [==============================] - 8s 74ms/step - loss: 4.5673 - acc: 0.4893 - val_loss: 4.8470 - val_acc: 0.2500
…
