…
2021-02-24 22:34:45.006106: I tensorflow/core/common_runtime/gpu/gpu_device.cc:1115] Created TensorFlow device (/job:localhost/replica:0/task:0/device:GPU:0 with 6361 MB memory) -> physical GPU (device: 0, name: GeForce RTX 2080, pci bus id: 0000:5e:00.0, compute capability: 7.5)
WARNING:tensorflow:From /opt/miniconda3/envs/2ndPaper-t2/lib/python3.6/site-packages/tensorflow/python/ops/resource_variable_ops.py:435: colocate_with (from tensorflow.python.framework.ops) is deprecated and will be removed in a future version.
Instructions for updating:
Colocations handled automatically by placer.
_________________________________________________________________
Layer (type)                 Output Shape              Param #   
=================================================================
flatten (Flatten)            (None, 1024)              0         
_________________________________________________________________
dense (Dense)                (None, 300)               307500    
_________________________________________________________________
Relu1 (Activation)           (None, 300)               0         
_________________________________________________________________
dense_1 (Dense)              (None, 150)               45150     
_________________________________________________________________
Relu2 (Activation)           (None, 150)               0         
_________________________________________________________________
dense_2 (Dense)              (None, 4)                 604       
_________________________________________________________________
activation (Activation)      (None, 4)                 0         
=================================================================
Total params: 353,254
Trainable params: 353,254
Non-trainable params: 0
_________________________________________________________________
Train on 6474 samples, validate on 1728 samples
WARNING:tensorflow:From /opt/miniconda3/envs/2ndPaper-t2/lib/python3.6/site-packages/tensorflow/python/ops/math_ops.py:3066: to_int32 (from tensorflow.python.ops.math_ops) is deprecated and will be removed in a future version.
…
Test Accuracy is 62.29 %

WARNING:tensorflow:From /opt/miniconda3/envs/2ndPaper-t2/lib/python3.6/site-packages/tensorflow/python/keras/layers/core.py:143: calling dropout (from tensorflow.python.ops.nn_ops) with keep_prob is deprecated and will be removed in a future version.
Instructions for updating:
Please use `rate` instead of `keep_prob`. Rate should be set to `rate = 1 - keep_prob`.
_________________________________________________________________
Layer (type)                 Output Shape              Param #   
=================================================================
permute (Permute)            (None, 32, 32, 1)         0         
_________________________________________________________________
Conv2D_1 (Conv2D)            (None, 32, 32, 64)        640       
_________________________________________________________________
dropout (Dropout)            (None, 32, 32, 64)        0         
_________________________________________________________________
batch_normalization_v1_2 (Ba (None, 32, 32, 64)        128       
_________________________________________________________________
max_pooling2d (MaxPooling2D) (None, 16, 16, 64)        0         
_________________________________________________________________
Conv2D_2 (Conv2D)            (None, 16, 16, 128)       73856     
_________________________________________________________________
dropout_1 (Dropout)          (None, 16, 16, 128)       0         
_________________________________________________________________
batch_normalization_v1_3 (Ba (None, 16, 16, 128)       64        
_________________________________________________________________
Conv2D_3 (Conv2D)            (None, 16, 16, 128)       147584    
_________________________________________________________________
dropout_2 (Dropout)          (None, 16, 16, 128)       0         
_________________________________________________________________
batch_normalization_v1_4 (Ba (None, 16, 16, 128)       64        
_________________________________________________________________
max_pooling2d_1 (MaxPooling2 (None, 8, 8, 128)         0         
_________________________________________________________________
Conv2D_4 (Conv2D)            (None, 8, 8, 256)         295168    
_________________________________________________________________
dropout_3 (Dropout)          (None, 8, 8, 256)         0         
_________________________________________________________________
batch_normalization_v1_5 (Ba (None, 8, 8, 256)         32        
_________________________________________________________________
Conv2D_5 (Conv2D)            (None, 8, 8, 256)         590080    
_________________________________________________________________
dropout_4 (Dropout)          (None, 8, 8, 256)         0         
_________________________________________________________________
batch_normalization_v1_6 (Ba (None, 8, 8, 256)         32        
_________________________________________________________________
max_pooling2d_2 (MaxPooling2 (None, 4, 4, 256)         0         
_________________________________________________________________
flatten_1 (Flatten)          (None, 4096)              0         
_________________________________________________________________
FCN_1 (Dense)                (None, 512)               2097664   
_________________________________________________________________
dropout_5 (Dropout)          (None, 512)               0         
_________________________________________________________________
FCN_2 (Dense)                (None, 128)               65664     
_________________________________________________________________
FCN_3 (Dense)                (None, 4)                 516       
=================================================================
Total params: 3,271,492
Trainable params: 3,271,332
Non-trainable params: 160
_________________________________________________________________
Train on 6474 samples, validate on 1728 samples
Epoch 1/25
6474/6474 [==============================] - 5s 717us/sample - loss: 8.0537 - acc: 0.4234 - val_loss: 7.8988 - val_acc: 0.2500
…
6474/6474 [==============================] - 2s 317us/sample - loss: 6.5362 - acc: 0.7964 - val_loss: 7.3954 - val_acc: 0.4797
Epoch 25/25
6474/6474 [==============================] - 2s 317us/sample - loss: 6.5159 - acc: 0.7984 - val_loss: 7.3969 - val_acc: 0.4699
175/175 [==============================] - 0s 437us/sample - loss: 7.9014 - acc: 0.3314
test loss, test acc: [7.901441225324358, 0.33142856]
_________________________________________________________________
Layer (type)                 Output Shape              Param #   
=================================================================
permute_1 (Permute)          (None, 32, 32, 1)         0         
_________________________________________________________________
Conv2D_1 (Conv2D)            (None, 32, 32, 32)        320       
_________________________________________________________________
dropout_6 (Dropout)          (None, 32, 32, 32)        0         
_________________________________________________________________
batch_normalization_v1_7 (Ba (None, 32, 32, 32)        128       
_________________________________________________________________
max_pooling2d_3 (MaxPooling2 (None, 16, 16, 32)        0         
_________________________________________________________________
Conv2D_2 (Conv2D)            (None, 16, 16, 64)        18496     
_________________________________________________________________
dropout_7 (Dropout)          (None, 16, 16, 64)        0         
_________________________________________________________________
batch_normalization_v1_8 (Ba (None, 16, 16, 64)        64        
_________________________________________________________________
Conv2D_3 (Conv2D)            (None, 16, 16, 64)        36928     
_________________________________________________________________
dropout_8 (Dropout)          (None, 16, 16, 64)        0         
_________________________________________________________________
batch_normalization_v1_9 (Ba (None, 16, 16, 64)        64        
_________________________________________________________________
max_pooling2d_4 (MaxPooling2 (None, 8, 8, 64)          0         
_________________________________________________________________
Conv2D_4 (Conv2D)            (None, 8, 8, 128)         73856     
_________________________________________________________________
dropout_9 (Dropout)          (None, 8, 8, 128)         0         
_________________________________________________________________
batch_normalization_v1_10 (B (None, 8, 8, 128)         32        
_________________________________________________________________
Conv2D_5 (Conv2D)            (None, 8, 8, 128)         147584    
_________________________________________________________________
dropout_10 (Dropout)         (None, 8, 8, 128)         0         
_________________________________________________________________
batch_normalization_v1_11 (B (None, 8, 8, 128)         32        
_________________________________________________________________
max_pooling2d_5 (MaxPooling2 (None, 4, 4, 128)         0         
_________________________________________________________________
flatten_2 (Flatten)          (None, 2048)              0         
_________________________________________________________________
FCN_1 (Dense)                (None, 512)               1049088   
_________________________________________________________________
dropout_11 (Dropout)         (None, 512)               0         
_________________________________________________________________
FCN_2 (Dense)                (None, 128)               65664     
_________________________________________________________________
FCN_3 (Dense)                (None, 4)                 516       
=================================================================
Total params: 1,392,772
Trainable params: 1,392,612
Non-trainable params: 160
_________________________________________________________________
Train on 6474 samples, validate on 1728 samples
Epoch 1/25
6474/6474 [==============================] - 3s 420us/sample - loss: 4.7604 - acc: 0.4428 - val_loss: 4.6868 - val_acc: 0.2500
…
